etc/palm_classifier.tflite (tflite, 102536 bytes, 33 tensors)

model_1/batch_normalization_4/batchnorm/add_1 f2 [32]
000000 96 3b 4e 3b 3f ad 88 3e 5e 39 fa 3c ad 38 da 3b
       0.948 0.913 -0.082 1.633 0.671 1.244 0.5845 0.9814
000010 f3 3a a4 34 00 3b b9 37 0d 38 77 39 bd 3a 18 3e
       0.8687 0.29 0.875 0.4827 0.5063 0.683 0.8423 1.523
000020 07 3c 66 39 63 3b 7a 3b d3 37 5a 3a 15 38 86 3a
       1.007 0.675 0.9233 0.9346 0.489 0.794 0.5103 0.8154
000030 21 3b ef 37 06 37 21 3d c6 38 d8 3a 24 38 4c 3b
       0.891 0.4958 0.439 1.282 0.5967 0.8555 0.5176 0.912

model_1/batch_normalization_5/batchnorm/add_1 f2 [15]
000000 42 2c ef 36 4d 35 5e 34 1a b6 b4 b6 4e b5 0b b7
       0.0665 0.4333 0.3313 0.273 -0.3813 -0.419 -0.3315 -0.4402
000010 9b b4 a6 b6 7c b9 9a bb b7 bc 33 bc f3 bb
       -0.2878 -0.4155 -0.6855 -0.95 -1.179 -1.05 -0.9937

model_1/batch_normalization/FusedBatchNormV3 f2 [32]
000000 fb 28 da 2a d0 22 e7 30 16 2d 9d 33 8b af 85 30
       0.0389 0.05353 0.013306 0.1532 0.07947 0.2379 -0.11786 0.1412
000010 a0 ad 54 a2 31 b1 8f b3 a3 2d 11 a6 9f 1e fa 30
       -0.0879 -0.01236 -0.1622 -0.2362 0.0881 -0.0237 0.006466 0.1555
000020 e7 31 d5 b3 d3 2e 8c 2d dc 26 fc 2e 08 1c 03 2c
       0.1844 -0.2448 0.1066 0.0867 0.0268 0.10913 0.003937 0.0627
000030 f6 a9 3c 9c 95 30 e0 a1 4c 2e a1 2c a9 30 31 32
       -0.04657 -0.004135 0.1432 -0.011475 0.0984 0.0723 0.1456 0.1935

model_1/batch_normalization_1/FusedBatchNormV3 f2 [32]
000000 97 a5 c4 31 2f 2f 58 94 1d b5 73 38 3c b1 1d b1
       -0.02184 0.1802 0.11224 -0.0010605 -0.3196 0.556 -0.1636 -0.1598
000010 7c 2f 7c 2c ec 30 3b 30 ab 33 59 34 a3 2e 28 2d
       0.11694 0.07007 0.1538 0.1322 0.2396 0.2717 0.1037 0.08057
000020 f3 ab bf bd 44 31 ca 36 a6 31 13 34 6f a6 85 b1
       -0.0621 -1.437 0.1646 0.4243 0.1765 0.2546 -0.02513 -0.1725
000030 08 2a 6e 14 e8 37 48 30 30 34 a0 9b cb 31 03 b4
       0.04712 0.001081 0.4941 0.1338 0.2617 -0.003723 0.181 -0.2507

model_1/batch_normalization_2/FusedBatchNormV3 f2 [64]
000000 5e 39 12 3c 9e ac 06 b5 d9 3b 6b 3d e9 bc 76 b9
       0.671 1.018 -0.07214 -0.314 0.981 1.3545 -1.228 -0.6826
000010 46 b6 de b3 a4 38 01 2d 49 b3 d7 38 40 3e f8 a4
       -0.392 -0.2458 0.58 0.0782 -0.2277 0.605 1.5625 -0.01941
000020 65 32 37 32 e6 3c 91 b5 07 25 8c b7 5b 31 21 3d
       0.1998 0.1942 1.225 -0.348 0.01964 -0.4717 0.1674 1.282
000030 a7 2b 50 3e 71 b4 02 30 1c ba b1 b2 3a 32 32 38
       0.05978 1.578 -0.2776 0.1252 -0.7637 -0.2091 0.1946 0.5244
000040 c2 b5 55 b2 19 2d 03 34 43 37 33 af bd 38 2b b0
       -0.3599 -0.1979 0.07965 0.2507 0.4539 -0.1125 0.5923 -0.1302
000050 b0 3b a4 35 5d 3b 2d 37 4f b2 53 2e c6 3b 95 ba
       0.961 0.3525 0.9204 0.4485 -0.1971 0.0988 0.9717 -0.8228
000060 4f b1 79 37 89 b7 f7 30 c9 38 b4 3b a2 2d 31 b6
       -0.1659 0.467 -0.471 0.1552 0.598 0.963 0.088 -0.387
000070 fb 30 34 39 46 37 2c 33 5b 3c 70 ac 19 b4 4c b1
       0.1556 0.6504 0.4546 0.2241 1.089 -0.06934 -0.256 -0.1655

model_1/batch_normalization_3/FusedBatchNormV3 f2 [96]
000000 c0 32 2b 3c 19 3c 43 ae 34 3d 8b 3a da 3d 0a b1
       0.2109 1.042 1.024 -0.09784 1.301 0.818 1.463 -0.1575
000010 fe 31 0f 39 5e b9 5d b0 1d 40 56 3a 84 bb 96 b8
       0.1873 0.6323 -0.671 -0.1364 2.057 0.792 -0.9395 -0.573
000020 82 39 e4 3e d7 3e 44 38 75 3e 29 b8 da bc 63 36
       0.6885 1.723 1.71 0.533 1.614 -0.52 -1.213 0.3992
000030 73 39 75 bc b4 39 9b 39 05 b9 e5 30 28 3b 45 b8
       0.681 -1.114 0.713 0.7007 -0.6274 0.153 0.8945 -0.5337
000040 c3 3b 63 37 41 3a 7a 3c f7 38 84 b2 58 3c 37 3d
       0.97 0.4617 0.7817 1.119 0.6206 -0.2036 1.086 1.304
000050 f9 bb 38 3f 5d b3 25 bc 15 b8 34 36 f3 39 82 35
       -0.9966 1.805 -0.2301 -1.036 -0.5103 0.3877 0.7437 0.3442
000060 6e 32 f9 3a ae bb 27 3b 5b 35 01 39 ec b7 8e bc
       0.2009 0.8716 -0.96 0.894 0.3347 0.6255 -0.495 -1.139
000070 a7 b1 5c 3f 92 b8 af b0 d9 2e 11 b6 2b 38 b3 3a
       -0.1766 1.84 -0.5713 -0.1464 0.107 -0.3792 0.521 0.8374
000080 a5 a4 6c 38 3a 30 fc 37 8e 32 5f a6 b9 30 d0 bb
       -0.01814 0.5527 0.1321 0.499 0.2048 -0.02489 0.1476 -0.9766
000090 cc c0 9a 3e 3c 3a 7c 3e 23 39 a1 30 39 36 86 ac
       -2.398 1.65 0.7793 1.621 0.642 0.1447 0.389 -0.0707
0000a0 05 35 ad bd be 2d 95 b4 33 ba b6 37 33 3d 31 3a
       0.3137 -1.419 0.0897 -0.2864 -0.775 0.482 1.3 0.774
0000b0 f5 b6 69 3d bb 3a 93 b9 9b 3b 8f a9 cb 37 27 3c
       -0.4348 1.353 0.8413 -0.697 0.9507 -0.04343 0.487 1.038

model_1/batch_normalization_4/batchnorm/mul_1 f2 [32, 96]
000000 47 bb 8e 31 c4 b6 72 38 3f 32 96 bc 13 2c 7b b5
       -0.9097 0.1736 -0.4229 0.5557 0.1952 -1.146 0.06366 -0.3425
000010 42 35 55 b7 5d 33 c7 b1 cf 33 d3 ae 9e 28 21 ad
       0.3286 -0.4583 0.2301 -0.1805 0.244 -0.1066 0.03607 -0.08014
000020 ae b3 4c b2 55 38 2a 38 82 20 76 ae df 39 02 30
       -0.24 -0.1968 0.5415 0.5205 0.008804 -0.10095 0.734 0.1252
000030 04 3c cc 35 bd b8 07 2c 2d b8 fe b7 18 b8 f3 a9
       1.004 0.3623 -0.5923 0.0629 -0.522 -0.4995 -0.5117 -0.04648
000040 f2 b6 f3 2c d0 b0 13 b7 ae b9 16 36 41 39 82 b5
       -0.434 0.07733 -0.1504 -0.4421 -0.71 0.3804 0.6567 -0.3442
000050 cb b3 1b bf a1 38 dd b8 6b 3a 7f 2b dc 39 dc b7
       -0.2435 -1.776 0.5786 -0.608 0.8022 0.05856 0.7324 -0.4912
000060 59 31 06 31 f7 b0 29 bc 8a b6 94 af 77 ab a8 b6
       0.1671 0.157 -0.1552 -1.04 -0.4087 -0.1184 -0.05832 -0.416
000070 0a a0 7c 34 6b b2 87 b8 8f 34 a0 bb 87 b3 be b3
       -0.00789 0.2803 -0.2006 -0.566 0.285 -0.953 -0.2352 -0.242
000080 ea b6 ac 3a e1 ac ac b8 d5 b7 5a bb b1 bc 01 35
       -0.4321 0.834 -0.07623 -0.584 -0.4895 -0.919 -1.173 0.3127
000090 72 39 08 36 59 a0 3b 35 64 ba 1e 36 55 a4 d6 3b
       0.6807 0.377 -0.00849 0.327 -0.799 0.3823 -0.01692 0.9795
0000a0 a1 34 3c b8 8d ae cd 39 9a b5 fe 2c fa 39 85 39
       0.2893 -0.5293 -0.10236 0.725 -0.35 0.078 0.747 0.69
0000b0 af 2e 31 3c ad b1 e0 20 fc 35 0a b6 7e 2f d0 b9
       0.10443 1.048 -0.1774 0.00952 0.374 -0.3774 0.11707 -0.7266
0000c0 e6 ad 76 b5 f1 3c c8 bc 9e b6 5d b6 94 2e 96 35
       -0.09216 -0.3413 1.235 -1.195 -0.4136 -0.3977 0.1028 0.349
0000d0 49 a7 14 b2 df 38 8f b6 53 b9 d4 b5 d4 32 6b 31
       -0.02846 -0.19 0.609 -0.41 -0.6655 -0.3643 0.2134 0.1693
0000e0 5a b9 2c b1 1e b7 11 b4 0d 3c c9 b3 9a 33 2f 34
       -0.669 -0.1616 -0.4448 -0.2542 1.013 -0.2433 0.2375 0.2615
0000f0 3c bb 77 b4 52 3c 88 b8 47 b4 21 38 32 33 e2 af
       -0.9043 -0.279 1.08 -0.5664 -0.2673 0.516 0.2249 -0.12317
000100 ad ad 7d 27 f3 2d c7 36 e9 b9 21 a8 5e b7 5b 3b
       -0.0887 0.02925 0.09296 0.4236 -0.739 -0.03226 -0.4604 0.9194
000110 b0 c0 b8 2c d0 32 4c bd f3 38 e9 ba 2b b8 17 39
       -2.344 0.0737 0.2129 -1.324 0.6187 -0.864 -0.521 0.636
000120 e1 b8 4b b8 aa 25 48 3b d8 32 63 b3 0e a9 b7 b4
       -0.61 -0.5366 0.02213 0.91 0.2139 -0.2308 -0.0395 -0.2947
000130 6e ae c1 3c e9 33 63 b5 30 b7 e4 aa 76 2e be b1
       -0.10046 1.188 0.2472 -0.3367 -0.4492 -0.05383 0.10095 -0.1794
000140 43 b0 5d b9 8b b9 49 33 6e 3d 6c 36 a7 37 be 23
       -0.1332 -0.6704 -0.693 0.2277 1.357 0.4014 0.4783 0.01512
000150 b2 28 c0 33 d6 bd 13 bc 13 b0 42 b5 84 37 39 ac
       0.03668 0.2422 -1.459 -1.019 -0.1273 -0.3286 0.4697 -0.066
000160 86 ae 25 2f 31 35 c9 b5 3d b9 a7 bb 61 b9 35 ba
       -0.1019 0.11163 0.3245 -0.3616 -0.655 -0.9565 -0.6724 -0.776
000170 42 ad 68 b6 81 b3 e8 30 9a b7 d4 33 24 b0 ad b7
       -0.08215 -0.4004 -0.2345 0.1533 -0.475 0.2446 -0.1294 -0.4797
000180 3b 2d 22 30 1b 38 1c bc 65 bc a7 34 1d 39 36 b2
       0.0817 0.1292 0.513 -1.027 -1.099 0.2908 0.639 -0.1941
000190 6b b5 dc 2e 74 ba bf b3 eb b2 31 a4 b4 b7 c5 b4
       -0.3386 0.1072 -0.8066 -0.2421 -0.2162 -0.01637 -0.4814 -0.298
0001a0 79 b8 31 b8 15 bc 78 b9 a5 29 1f 35 9e b0 82 38
       -0.559 -0.524 -1.0205 -0.6836 0.0441 0.32 -0.1443 0.5635
0001b0 1e b4 96 b5 e1 38 43 b8 a1 b4 c8 39 5a 31 01 3a
       -0.2573 -0.349 0.61 -0.5327 -0.2893 0.7227 0.1672 0.7505
0001c0 f4 b4 b1 b0 78 b3 6d 35 15 33 20 34 ce b6 92 a4
       -0.3096 -0.1466 -0.2334 0.339 0.2213 0.2578 -0.4253 -0.01785
0001d0 c6 b6 9a b9 c4 ba c0 b3 50 ba 03 b5 0c b7 43 3a
       -0.4233 -0.7 -0.8457 -0.2422 -0.789 -0.3132 -0.4404 0.7827
0001e0 60 2d 9e 2a cc 35 1d 39 b2 29 98 b6 52 aa 56 b3
       0.084 0.0517 0.3623 0.639 0.0445 -0.412 -0.04938 -0.2292
0001f0 30 b8 b9 b4 1c b4 16 b2 a1 b9 43 b2 c4 32 ef a4
       -0.5234 -0.2952 -0.2568 -0.1902 -0.7036 -0.1957 0.2114 -0.01927

model_1/batch_normalization_5/batchnorm/mul_1 f2 [15, 32]
000000 bd b9 23 38 b6 3a ec 32 9a b1 f8 36 f6 37 22 b9
       -0.7173 0.517 0.839 0.2163 -0.175 0.4355 0.4976 -0.6416
000010 cc ba a0 24 57 ba dd 2c 27 3a 90 b9 ca b3 24 36
       -0.8496 0.01807 -0.7925 0.076 0.769 -0.6953 -0.2434 0.3838
000020 86 34 78 b6 6c 37 b9 37 4d b4 50 bb 31 b6 2f 35
       0.2827 -0.4043 0.4639 0.4827 -0.2688 -0.914 -0.387 0.324
000030 da 2c 78 b5 95 b8 ea 33 63 b8 23 b7 f1 2c a5 b6
       0.0758 -0.3418 -0.5728 0.2473 -0.5483 -0.446 0.0772 -0.4153
000040 f4 b9 c0 b5 c3 3a 3f a0 a3 a9 6e 32 e4 b4 87 b9
       -0.744 -0.3594 0.845 -0.00829 -0.04404 0.2009 -0.3057 -0.691
000050 d5 ba 0c 30 ca 34 fb 25 e1 39 93 ba d2 b6 53 b6
       -0.854 0.1265 0.2993 0.02336 0.735 -0.822 -0.4263 -0.3953
000060 ac b8 c1 39 30 36 7e 37 3a 26 03 35 8d b5 f7 b4
       -0.584 0.719 0.3867 0.4683 0.02432 0.3132 -0.347 -0.3103
000070 62 b9 01 38 d4 b8 28 b9 ef 3b 18 37 9c ad a6 39
       -0.673 0.5005 -0.6035 -0.6445 0.9917 0.4434 -0.08765 0.706
000080 b6 b8 9c 37 05 3b 6c bb f9 ac 32 37 04 38 5e 2d
       -0.589 0.4756 0.8774 -0.9277 -0.0777 0.4497 0.502 0.08386
000090 71 ba c7 39 7a 34 e4 2e 54 3a ec 34 60 b8 06 b7
       -0.805 0.722 0.2798 0.10767 0.791 0.3076 -0.547 -0.439
0000a0 77 b9 99 38 99 b9 0c b9 a8 b4 0c 35 51 b3 24 b7
       -0.683 0.5747 -0.6997 -0.631 -0.291 0.3154 -0.2286 -0.4463
0000b0 6f af f6 b7 e3 b8 78 b9 5d 3b 33 b7 48 aa c4 39
       -0.11615 -0.4976 -0.611 -0.6836 0.9204 -0.45 -0.04907 0.7207
0000c0 59 a8 cf a7 2c 37 a1 b8 14 36 57 b9 73 b0 f0 ba
       -0.03397 -0.0305 0.4482 -0.5786 0.38 -0.6675 -0.139 -0.867
0000d0 15 28 f2 ad 15 b8 77 ac 00 34 5c 38 25 b8 23 b7
       0.0319 -0.0929 -0.5103 -0.06976 0.25 0.545 -0.518 -0.446
0000e0 37 32 d6 b4 d8 37 79 b2 5d b5 5b b6 30 35 9f b7
       0.1942 -0.3022 0.4902 -0.2023 -0.3352 -0.3972 0.3242 -0.4763
0000f0 00 ba 90 b5 99 b9 de b8 32 b5 6f b7 6d 38 77 3a
       -0.75 -0.3477 -0.6997 -0.6084 -0.3247 -0.4646 0.553 0.808
000100 9a ba 51 39 e6 38 61 b9 14 2d b3 ba 49 ae 32 bb
       -0.825 0.6646 0.6123 -0.6724 0.07935 -0.8374 -0.0982 -0.8994
000110 23 24 45 38 bd b8 29 38 04 38 77 b6 63 35 64 b7
       0.01616 0.5337 -0.5923 0.52 0.502 -0.404 0.3367 -0.462
000120 1d 30 ba 3a 3e b4 06 ae e3 36 7f 36 e5 b7 30 37
       0.1285 0.841 -0.2651 -0.0941 0.4304 0.406 -0.4934 0.4492
000130 27 30 9e 37 7d 2d b4 b9 28 b5 0f b5 d9 b2 f4 ab
       0.1298 0.476 0.08575 -0.713 -0.3223 -0.3162 -0.214 -0.06213
000140 5c ba 9b 38 e7 38 8d 32 a2 37 99 ba 68 39 93 b9
       -0.795 0.5757 0.613 0.2047 0.477 -0.8247 0.676 -0.697
000150 8b b5 c5 38 0e 2e 95 38 ab 36 1c 33 72 b9 a4 b7
       -0.3464 0.596 0.0946 0.5728 0.4167 0.2222 -0.6807 -0.4775
000160 f1 b9 31 b6 75 b5 09 39 80 36 df b8 2c 36 ec 36
       -0.7427 -0.387 -0.341 0.6294 0.4062 -0.609 0.3857 0.4326
000170 3f bb a2 38 19 b1 a5 34 0f 3c 9e b5 b4 38 1f 2a
       -0.906 0.579 -0.1593 0.2903 1.015 -0.351 0.588 0.04782
000180 3c ad f3 aa 3d 39 ff b9 be 36 39 ba 5d 39 72 a0
       -0.0818 -0.0543 0.655 -0.7495 0.4214 -0.778 0.6704 -0.00868
000190 7f bb 7c a0 e7 2d 6d a4 59 36 2d ba 6e 33 b9 b7
       -0.937 -0.00876 0.0922 -0.01729 0.3967 -0.772 0.2322 -0.4827
0001a0 b5 b9 23 39 1c 38 38 2d e0 36 9f b8 a5 34 0b 36
       -0.7134 0.642 0.5137 0.08154 0.4297 -0.5776 0.2903 0.3777
0001b0 6a 2a b2 b2 c1 2f 8d 33 96 3b 57 b5 d4 38 0e b0
       0.0501 -0.2092 0.12115 0.236 0.948 -0.3337 0.6035 -0.1267
0001c0 d5 26 7f 2c 1f 39 57 ba 9c b4 d5 b6 4a ad 0b 26
       0.02669 0.07025 0.64 -0.7925 -0.288 -0.427 -0.08264 0.0236
0001d0 60 ae 65 39 0a b8 d3 36 68 37 12 37 77 b8 64 35
       -0.0996 0.6743 -0.505 0.4265 0.463 0.442 -0.558 0.337
0001e0 4a b9 a8 b2 6b 38 d2 ae ba b4 c3 b8 a5 b7 76 36
       -0.661 -0.208 0.5522 -0.10657 -0.2954 -0.595 -0.4778 0.4038
0001f0 5f 30 0c 38 08 b9 59 b8 e1 36 2e 37 cc 38 0a ae
       0.1366 0.506 -0.629 -0.5435 0.43 0.4487 0.5996 -0.09436

model_1/batch_normalization_6/batchnorm/mul_1 f2 [2, 32]
000000 3c aa bd ad d8 bb 59 b4 e6 b8 65 b6 06 b0 27 2d
       -0.0487 -0.08966 -0.9805 -0.2717 -0.6123 -0.3997 -0.1257 0.0805
000010 7d ab 94 32 25 b2 8f 38 37 bc e0 b1 96 b4 7d 38
       -0.0585 0.2056 -0.192 0.57 -1.054 -0.1836 -0.2866 0.561
000020 f8 39 f2 34 ea aa 30 29 88 38 c8 28 47 2c 2a b9
       0.746 0.309 -0.05402 0.04053 0.5664 0.03735 0.06683 -0.6455
000030 02 b0 18 2d 8b 37 c3 b4 3b ab 95 28 df 39 08 b1
       -0.1252 0.0796 0.4714 -0.2976 -0.0565 0.0358 0.734 -0.1572
000040 48 b4 d3 af d0 b8 02 ab d7 3a 60 ad 74 b5 2d 2a
       -0.2676 -0.12225 -0.6016 -0.05475 0.855 -0.084 -0.3408 0.04825
000050 c7 b3 dc 24 ce b9 f2 a8 9c ba 68 b2 fd 2c 05 b5
       -0.243 0.01898 -0.7256 -0.03864 -0.826 -0.2002 0.07794 -0.3137
000060 f9 ac ad ad c5 32 61 b8 1e b5 1f 34 4b 38 5a 3b
       -0.0777 -0.0887 0.2115 -0.5474 -0.3198 0.2576 0.5366 0.919
000070 46 af 5b 38 69 30 55 b1 1a b2 b0 b0 4d 2d 32 b8
       -0.11365 0.5444 0.1378 -0.1666 -0.1907 -0.1465 0.0828 -0.5244

model_1/separable_conv2d_4/separable_conv2d/depthwise f2 [32]
000000 00 00 00 00 00 00 00 00 00 00 00 00 00 00 00 00
       0.0 0.0 0.0 0.0 0.0 0.0 0.0 0.0
000010 00 00 00 00 00 00 00 00 00 00 00 00 00 00 00 00
       0.0 0.0 0.0 0.0 0.0 0.0 0.0 0.0
000020 00 00 00 00 00 00 00 00 00 00 00 00 00 00 00 00
       0.0 0.0 0.0 0.0 0.0 0.0 0.0 0.0
000030 00 00 00 00 00 00 00 00 00 00 00 00 00 00 00 00
       0.0 0.0 0.0 0.0 0.0 0.0 0.0 0.0

model_1/conv2d/Conv2D f2 [32, 1, 1, 1]
000000 95 98 0c b3 57 34 ca b2 a0 ad 58 38 62 2e 38 b5
       -0.002237 -0.2202 0.2712 -0.2122 -0.0879 0.543 0.09973 -0.3262
000010 1e 2c 47 b4 70 b0 fe b5 ab 35 55 36 4f 33 aa 34
       0.06433 -0.2673 -0.1387 -0.3745 0.3542 0.3958 0.2284 0.2915
000020 0d b6 67 38 00 2c 77 b0 0e b0 0c ae b6 34 6e b1
       -0.3782 0.5503 0.0625 -0.1395 -0.1267 -0.0945 0.2944 -0.1697
000030 ca 38 bd 31 d9 b1 e2 31 40 12 88 25 cb 34 26 21
       0.5986 0.1793 -0.1827 0.1838 0.000763 0.0216 0.2996 0.010056

model_1/separable_conv2d/separable_conv2d/depthwise1 f2 [1, 3, 3, 1]
000000 bf 32 2f b4 fa b6 b9 31 b0 b7 3e b7 4f 2f 43 30
       0.2108 -0.2615 -0.436 0.1788 -0.4805 -0.4526 0.1142 0.1332
000010 f0 31
       0.1855

model_1/separable_conv2d/separable_conv2d f2 [32, 1, 1, 1]
000000 34 c4 2e c5 cf c4 ba 43 7e 45 25 c4 dd 44 85 47
       -4.203 -5.18 -4.81 3.863 5.492 -4.145 4.863 7.52
000010 d1 3c 35 44 2d 43 21 c3 4b 45 5e c2 14 45 bd 42
       1.204 4.207 3.588 -3.564 5.293 -3.184 5.08 3.37
000020 3d bf 07 c0 df 43 a3 c5 70 c2 b4 c4 48 c5 6c c3
       -1.81 -2.014 3.936 -5.637 -3.219 -4.703 -5.28 -3.71
000030 fa c1 b1 c5 61 41 33 47 d9 b1 0f 46 1a 46 07 46
       -2.988 -5.69 2.69 7.2 -0.1827 6.06 6.1 6.027

model_1/separable_conv2d_1/separable_conv2d/depthwise f2 [1, 3, 3, 32]
000000 47 28 50 24 8c 2e 2a 14 43 31 51 aa ad 30 98 b1
       0.03342 0.01685 0.1023 0.001017 0.1644 -0.04935 0.1461 -0.1748
000010 d6 2b 57 ae 2e ad c5 2d 65 29 3d 33 b0 a8 ca b2
       0.06122 -0.09906 -0.08093 0.09015 0.04214 0.2262 -0.03662 -0.2122
000020 df 2e 24 29 fb 23 6c a3 d8 ac 93 2e 2c af 95 b0
       0.10736 0.04016 0.01559 -0.014496 -0.0757 0.1027 -0.11206 -0.1432
000030 2f ae 1c 2f f0 ac 98 2d bf 1c 9d ac fb b3 0f 26
       -0.0966 0.1111 -0.07715 0.0874 0.004635 -0.0721 -0.2494 0.02367
000040 c4 23 c2 2d e9 29 dd b2 24 30 49 30 c3 a8 47 2a
       0.01517 0.08997 0.04617 -0.2145 0.1294 0.1339 -0.0372 0.04904
000050 4c ad 13 33 34 b4 13 30 e0 29 ef 27 c4 2c f3 28
       -0.08276 0.2211 -0.2627 0.1273 0.0459 0.03099 0.07446 0.03867
000060 0d 33 f7 ab b4 b1 de 2c fe ae 55 2e 3e a4 14 1b
       0.2203 -0.06223 -0.1782 0.07605 -0.10925 0.09894 -0.01657 0.003456
000070 c2 29 ef 2a 9e 33 00 32 a8 2f a8 17 7c af 28 ab
       0.04498 0.05417 0.238 0.1875 0.1196 0.001869 -0.11694 -0.0559
000080 f0 29 92 ac 8c 24 6f ab 81 27 51 ab e3 2e e3 27
       0.0464 -0.0714 0.01776 -0.05807 0.02931 -0.05716 0.1076 0.0308
000090 d5 29 37 32 c1 aa 0f 25 c8 b0 84 26 df ae 09 ad
       0.04556 0.1942 -0.05276 0.01976 -0.1494 0.02545 -0.10736 -0.0787
0000a0 e6 2f 56 2c 66 2d 5e 9e 83 b1 f9 28 8b b1 33 31
       0.1234 0.06775 0.08435 -0.006218 -0.1722 0.03885 -0.1732 0.1625
0000b0 da 2f b7 2a e9 30 11 2f 30 30 eb ab 54 31 93 ad
       0.1227 0.05246 0.1534 0.1104 0.1309 -0.06186 0.1665 -0.0871
0000c0 76 b2 0f b4 76 2e 2a aa 22 2d b8 ae d4 b2 c3 b1
       -0.2019 -0.2537 0.10095 -0.04816 0.0802 -0.105 -0.2134 -0.18
0000d0 ce 29 8d b0 eb 27 e1 34 aa 25 10 2d 8f 2d 17 b0
       0.04535 -0.1422 0.03093 0.305 0.02213 0.0791 0.08685 -0.1278
0000e0 d5 b1 8a b0 e2 29 75 21 a5 1d 1c 1c 0e 2f 19 b3
       -0.1823 -0.1418 0.04596 0.01066 0.005512 0.004013 0.1102 -0.2218
0000f0 83 ad 82 31 f5 a5 b0 ae 5f 2b 1b b0 6e 33 e2 30
       -0.0861 0.1721 -0.02327 -0.1045 0.0576 -0.1283 0.2322 0.1526
000100 21 b0 9f a6 24 b1 f3 30 09 30 26 35 d7 2c 89 34
       -0.129 -0.02586 -0.1606 0.1547 0.1261 0.3218 0.0756 0.2834
000110 74 b3 68 21 31 33 65 31 36 32 82 b0 e9 b0 75 31
       -0.2329 0.01056 0.2247 0.1686 0.1941 -0.1409 -0.1534 0.1705
000120 c6 a6 13 b4 b4 32 24 34 5a a1 69 a7 9a 30 f0 2a
       -0.02646 -0.2546 0.2095 0.2588 -0.01045 -0.02895 0.1438 0.0542
000130 83 a9 9c 30 5e 2e 14 b3 da 2e f4 ad a1 2c 5c 31
       -0.04306 0.144 0.0995 -0.2212 0.10706 -0.093 0.0723 0.1675
000140 74 2e 42 a1 60 af 5a ad af 28 f8 b3 80 b1 d7 ae
       0.1008 -0.01027 -0.11523 -0.0836 0.0366 -0.249 -0.1719 -0.1069
000150 2e 28 f2 96 a4 30 05 2c 6a b1 42 ad c6 af 82 30
       0.03265 -0.001696 0.145 0.0628 -0.1692 -0.08215 -0.12146 0.1409
000160 97 aa 53 2a 18 2a dd a1 6f ae 2d 30 34 31 a6 31
       -0.05148 0.0494 0.0476 -0.01145 -0.1005 0.1305 0.1626 0.1765
000170 50 a9 be a2 7c 2c d6 2c 36 2c d5 ad 37 25 3d b0
       -0.0415 -0.01317 0.07007 0.07556 0.0658 -0.0911 0.02037 -0.1324
000180 d0 ae 77 a8 f7 2d 9e ac 41 b4 4b 9d 2c 28 a2 22
       -0.10645 -0.03488 0.0932 -0.07214 -0.2659 -0.00517 0.0326 0.012955
000190 53 91 82 a5 61 30 32 31 f6 a9 7d 27 ab a8 0e 2d
       -0.00065 -0.02151 0.1368 0.1624 -0.04657 0.02925 -0.03647 0.079
0001a0 b9 28 ec 22 0a b0 57 b4 6a aa 34 b2 d9 2d c0 2c
       0.0369 0.01352 -0.1262 -0.2712 -0.0501 -0.1938 0.0914 0.0742
0001b0 1e 29 85 25 ca b0 28 2d e9 28 4f ac 5d 32 cc 32
       0.03998 0.02156 -0.1497 0.08057 0.03836 -0.0673 0.1989 0.2124
0001c0 6b 1d c7 31 58 af 7a 31 20 ae 1f 29 00 33 a2 2d
       0.00529 0.1805 -0.11475 0.1711 -0.0957 0.04 0.2188 0.088
0001d0 1f ac b4 a4 1a ac ee 2c 0c 31 5a b1 28 a8 49 31
       -0.0644 -0.01837 -0.0641 0.077 0.1577 -0.1672 -0.03247 0.1652
0001e0 7e b2 10 30 c7 a9 c0 27 2a ad fa b1 68 ae 40 2a
       -0.2029 0.127 -0.04514 0.03027 -0.0807 -0.1868 -0.1001 0.04883
0001f0 b4 32 f2 31 fe b2 34 b4 89 2f 0c b0 a5 27 a5 1c
       0.2095 0.1858 -0.2185 -0.2627 0.11774 -0.1265 0.02986 0.004536

model_1/separable_conv2d_1/separable_conv2d f2 [32, 1, 1, 32]
000000 85 2e 45 2d 15 b2 6e b2 ba 9b 6b b5 2c 32 72 31
       0.10187 0.08234 -0.1901 -0.2009 -0.003773 -0.3386 0.1929 0.1702
000010 9c b1 3f 35 e8 af 0f b6 d9 ae 3f 2f 81 b3 4f b7
       -0.1753 0.328 -0.12354 -0.3787 -0.107 0.1132 -0.2345 -0.4568
000020 16 a8 e1 ab d7 b0 5f 30 67 23 62 b1 ac 33 e2 34
       -0.03192 -0.06155 -0.1512 0.1366 0.01446 -0.1682 0.2397 0.3052
000030 66 b5 ad 2f a5 2e 0e b2 b6 1c 21 2e 59 b4 5c 34
       -0.3374 0.11993 0.1038 -0.1892 0.0046 0.09576 -0.2717 0.2725
000040 70 31 78 b1 7e 2f 38 ae c0 23 e0 b1 a2 2d 01 30
       0.1699 -0.1709 0.11707 -0.09717 0.01514 -0.1836 0.088 0.1251
000050 ef a1 e7 34 c7 2d bb b1 b1 b5 dc 30 b9 36 c6 32
       -0.01159 0.3064 0.0903 -0.1791 -0.3557 0.1519 0.4202 0.2117
000060 c1 30 ed 31 f4 35 2d 2e 41 b3 f1 23 91 2d 44 22
       0.1486 0.1852 0.372 0.0965 -0.2267 0.01551 0.087 0.01224
000070 a7 b4 24 b1 c1 ae 51 a1 12 36 fc 36 03 b3 44 2a
       -0.2908 -0.1606 -0.1055 -0.01038 0.3794 0.4365 -0.2191 0.04895
000080 03 b4 d1 af 7d 2f a9 b0 58 af 3d a4 c9 9e 15 28
       -0.2507 -0.12213 0.117 -0.1456 -0.11475 -0.01656 -0.006626 0.0319
000090 79 32 24 31 c3 26 d3 b8 44 32 6e ad 22 a8 e6 ae
       0.2023 0.1606 0.02641 -0.603 0.1958 -0.08484 -0.0323 -0.1078
0000a0 ea b2 60 2f c3 a8 f6 32 b5 a5 bc a9 6b 2f d5 b3
       -0.2161 0.11523 -0.0372 0.2175 -0.0223 -0.0448 0.1159 -0.2448
0000b0 b0 af 6e 35 c6 ae b7 2e e5 ad 8d 34 2f b0 40 2b
       -0.1201 0.3394 -0.10583 0.1049 -0.0921 0.2844 -0.1307 0.05664
0000c0 85 34 23 1b 2d 2b 9e 31 9f ad b3 b0 55 ad 6a ae
       0.2825 0.003485 0.05606 0.1755 -0.0878 -0.1469 -0.0833 -0.1002
0000d0 fa a9 2e b4 8f 22 b2 10 32 31 8e ab d2 2c c7 31
       -0.0467 -0.2612 0.01281 0.000573 0.1624 -0.05902 0.0753 0.1805
0000e0 46 a2 ad ad 81 2c 46 23 3e 32 2b 2e 9d 31 0f af
       -0.01225 -0.0887 0.0704 0.014206 0.1951 0.0964 0.1754 -0.1103
0000f0 88 32 d4 32 ff b4 32 b2 51 33 40 98 03 35 4a 34
       0.2041 0.2134 -0.3123 -0.1936 0.2286 -0.002075 0.3132 0.268
000100 6e b0 61 b1 c0 a7 e2 28 42 af 3a 32 45 2a a2 36
       -0.1384 -0.1681 -0.03027 0.03815 -0.1134 0.1946 0.04898 0.4146
000110 04 a4 88 2b f4 31 80 31 01 b4 ce b5 a8 31 5a 35
       -0.01569 0.05884 0.186 0.1719 -0.2502 -0.3628 0.1768 0.3345
000120 99 37 ca ac 83 30 64 ac a5 ae a4 31 eb b2 44 b5
       0.4749 -0.0748 0.141 -0.0686 -0.1038 0.1763 -0.2162 -0.329
000130 84 31 b3 b3 a2 33 3d b0 9b 31 a3 2f 4e 35 db 25
       0.1724 -0.2406 0.2385 -0.1324 0.1752 0.1193 0.3315 0.02287
000140 5d 95 86 b1 5e 1e ef 34 a8 32 44 b8 34 2b 30 38
       -0.001309 -0.1726 0.006218 0.3083 0.208 -0.533 0.05627 0.5234
000150 80 26 90 25 75 34 bc ac d2 35 fe b3 d8 31 9b 30
       0.02539 0.02173 0.2786 -0.074 0.3638 -0.2498 0.1826 0.1439
000160 62 a8 b8 2d d2 a8 bd b0 1b 31 d4 34 05 aa aa b2
       -0.03424 0.08936 -0.03766 -0.1481 0.1595 0.3018 -0.04703 -0.2083
000170 25 a8 5c b2 6b 2a 7d 2d a0 2f ca 19 08 b5 b1 30
       -0.03238 -0.1987 0.05014 0.08575 0.11914 0.002827 -0.3145 0.1466
000180 4c b6 dd b0 c1 b1 17 a8 51 a0 ac a8 2f ae 2f 29
       -0.3936 -0.152 -0.1798 -0.03195 -0.00843 -0.0365 -0.0966 0.0405
000190 02 2b 5a 1d 1f 36 a3 b4 95 30 c4 2c ee aa 74 b6
       0.05475 0.005226 0.3826 -0.2898 0.1432 0.07446 -0.05414 -0.4033
0001a0 6d b8 7e 34 a3 ae 9b 8f 08 b2 0a b4 4b 35 cd ae
       -0.553 0.2808 -0.1037 -0.0004642 -0.1885 -0.2524 0.3308 -0.10626
0001b0 40 ac 14 31 9e 31 4f b2 a1 36 84 ac 60 b1 54 b0
       -0.0664 0.1587 0.1755 -0.1971 0.4143 -0.07056 -0.168 -0.1353
0001c0 ef b4 7a b4 f8 a0 96 b0 82 35 91 37 5b af 14 b6
       -0.3083 -0.2798 -0.009705 -0.1433 0.3442 0.473 -0.1149 -0.38
0001d0 60 28 c1 b2 64 ad b0 b5 f5 b3 27 b1 39 2e 02 a0
       0.03418 -0.211 -0.0842 -0.3555 -0.2487 -0.161 0.0972 -0.00783
0001e0 18 b2 2c 31 23 a5 94 aa b0 b3 58 b1 3f b2 25 b5
       -0.1904 0.1616 -0.02007 -0.0514 -0.2402 -0.167 -0.1952 -0.3215
0001f0 e4 b1 24 30 ae 22 94 b6 75 b1 9d 30 1f b5 a0 b6
       -0.1841 0.1294 0.01305 -0.4111 -0.1705 0.1442 -0.32 -0.414

model_1/conv2d_1/Conv2D f2 [32, 1, 1, 32]
000000 fd ae 81 31 a1 ad 53 b4 32 2e 01 af 12 af 25 b5
       -0.1092 0.172 -0.08795 -0.2703 0.0968 -0.10944 -0.1105 -0.3215
000010 04 b6 31 b6 4a b0 8d aa 1c ae bb b1 30 25 ec 34
       -0.376 -0.387 -0.134 -0.05118 -0.09546 -0.1791 0.02026 0.3076
000020 3f b2 c4 b2 8d 32 a7 21 44 b7 57 ad 82 b6 a0 25
       -0.1952 -0.2114 0.2047 0.01104 -0.454 -0.08344 -0.4067 0.02197
000030 42 30 ea 32 5b af 4e 2e f7 2e 8d ab 63 2d c7 2b
       0.133 0.2161 -0.1149 0.0985 0.1088 -0.059 0.08417 0.06076
000040 4d ab 1d 35 99 33 8f 2c 6d b6 18 af c3 b5 f9 2b
       -0.05704 0.3196 0.2374 0.0712 -0.4016 -0.11084 -0.36 0.0623
000050 30 31 d7 a9 ea ae be b6 2e b1 8b 9b f8 b1 9b b3
       0.1621 -0.04562 -0.10803 -0.4214 -0.1619 -0.003683 -0.1865 -0.2377
000060 46 af d5 b2 ac 97 26 af be 2b cf ad 77 b5 65 aa
       -0.11365 -0.2135 -0.001873 -0.1117 0.0605 -0.09076 -0.3416 -0.04996
000070 b1 2f 8c 27 7f b4 70 b0 b1 25 de 10 a2 30 3b 2e
       0.1202 0.02948 -0.281 -0.1387 0.02223 0.000594 0.1448 0.09735
000080 77 33 10 b2 c9 34 fa 33 79 af d4 af 95 34 33 ac
       0.2333 -0.1895 0.299 0.2493 -0.11676 -0.1223 0.2864 -0.0656
000090 79 27 8a 2f 41 30 98 32 22 a8 27 30 b9 b5 37 b2
       0.02919 0.1178 0.1329 0.206 -0.0323 0.1298 -0.3577 -0.1942
0000a0 84 af f2 2b 86 29 6c 34 a9 2e 3a 30 24 32 1e 2c
       -0.11743 0.06207 0.04315 0.2764 0.10406 0.1321 0.1919 0.06433
0000b0 a8 32 32 b0 6a b4 f9 b1 35 35 9b b4 35 2d 58 32
       0.208 -0.1311 -0.276 -0.1866 0.3254 -0.2878 0.08136 0.1982
0000c0 3a ad 13 b2 9b b0 63 af 37 31 cc ae aa af 15 b0
       -0.08167 -0.1898 -0.1439 -0.1154 0.163 -0.1062 -0.11975 -0.1276
0000d0 94 29 fa 2e b6 2f e4 30 0e 30 f2 b2 19 33 3b 31
       0.04358 0.109 0.1205 0.1528 0.1267 -0.217 0.2218 0.1635
0000e0 dd 34 43 30 81 2e 24 a9 93 af f4 2d 16 34 77 33
       0.304 0.1332 0.1016 -0.04016 -0.11835 0.093 0.2554 0.2333
0000f0 56 ad ec 30 99 27 e2 2a a9 1e e8 25 cf a8 64 ab
       -0.0834 0.1538 0.02968 0.05377 0.006504 0.02307 -0.03757 -0.05774
000100 fc b1 d2 b2 0d 36 d4 b2 4a b0 ea 2e 2b b0 37 2c
       -0.187 -0.2131 0.3782 -0.2134 -0.134 0.10803 -0.1302 0.06586
000110 0b a9 74 ab 5b 26 4f aa f6 2f c8 29 08 28 a6 b6
       -0.0394 -0.05823 0.02483 -0.0493 0.1244 0.04517 0.0315 -0.4155
000120 55 27 d3 aa 52 33 20 a9 1c 35 d9 b4 c3 2c b2 27
       0.02864 -0.0533 0.2288 -0.04004 0.3193 -0.303 0.0744 0.03006
000130 a7 37 c3 ac 87 2e d5 a9 9f 18 5f b6 d9 a8 d0 a7
       0.4783 -0.0744 0.102 -0.04556 0.002256 -0.3982 -0.03787 -0.03052
000140 94 27 28 b3 e0 b4 37 ad 7b aa 01 37 a8 2c b4 31
       0.0296 -0.2236 -0.3047 -0.0815 -0.05063 0.4377 0.07275 0.1782
000150 de b1 8e b2 60 2f 66 ae ce 2e 54 ac 8f 32 e4 33
       -0.1833 -0.2048 0.11523 -0.1 0.1063 -0.0676 0.205 0.2466
000160 13 36 cb 2c 42 2f 3e 35 25 2d 71 32 0b ab dc 34
       0.3796 0.0749 0.1134 0.3276 0.0804 0.2013 -0.05502 0.3037
000170 52 b5 0e 1d 91 a9 57 ae be b4 65 34 e4 ae 47 b2
       -0.3325 0.004936 -0.0435 -0.09906 -0.2964 0.2747 -0.10767 -0.1962
000180 13 2c 2f 34 61 2f 0b 30 ef b1 f7 24 05 2c f0 b0
       0.06366 0.2615 0.1153 0.1263 -0.1854 0.0194 0.0628 -0.1543
000190 1f b1 1d a1 63 b3 00 34 d2 b3 4a 34 d0 b2 f5 ac
       -0.16 -0.00999 -0.2308 0.25 -0.2444 0.268 -0.2129 -0.07745
0001a0 7e a8 84 24 1a ac 39 2f d5 b5 42 27 dc ae 23 a4
       -0.0351 0.01764 -0.0641 0.11285 -0.3645 0.02835 -0.1072 -0.01616
0001b0 97 33 a5 b4 2e b0 70 b6 f0 ae 24 a1 e5 b2 78 2e
       0.2372 -0.2903 -0.1306 -0.4023 -0.1084 -0.01004 -0.2155 0.1011
0001c0 ad b0 45 a4 5d 2d 4f a6 6e 34 58 a8 6e 0d 3a 2d
       -0.1461 -0.01668 0.0838 -0.02464 0.2769 -0.03394 0.0003314 0.08167
0001d0 4c a1 55 a7 ec b0 a6 ac fe 2d 11 a8 5d b0 a6 a8
       -0.010345 -0.02864 -0.1538 -0.07263 0.0936 -0.03177 -0.1364 -0.03632
0001e0 92 b0 08 b2 b9 2f b1 ab 5d 32 e9 29 4a b2 4e 30
       -0.1428 -0.1885 0.12067 -0.0601 0.1989 0.04617 -0.1965 0.1345
0001f0 08 20 d4 b1 93 af 35 b0 78 32 7d b2 9c 31 94 af
       0.00787 -0.1821 -0.11835 -0.1315 0.2021 -0.2028 0.1753 -0.1184

model_1/separable_conv2d_2/separable_conv2d/depthwise f2 [1, 3, 3, 32]
000000 56 1c 9c ac 3f af 4c 22 36 b0 fa aa 40 b1 04 2c
       0.004234 -0.072 -0.1132 0.0123 -0.1316 -0.0545 -0.1641 0.06274
000010 60 1f 2c b1 7b b0 af af e3 a3 0b 35 b9 a9 63 a5
       0.007202 -0.1616 -0.14 -0.12006 -0.0154 0.3152 -0.0447 -0.02104
000020 a7 b2 cc b2 24 af ff 2d c7 b2 bd b2 2a b0 11 32
       -0.2079 -0.2124 -0.1116 0.0937 -0.2118 -0.2106 -0.1301 0.1896
000030 87 2f 7c 9b 2f 2f 07 a8 77 b2 e0 32 67 ad ef 2c
       0.1176 -0.003654 0.11224 -0.03146 -0.202 0.2148 -0.0844 0.0771
000040 a6 b3 a5 20 c5 ab aa 34 97 30 a8 b0 fc b3 e3 34
       -0.239 0.00907 -0.0607 0.2915 0.1434 -0.1455 -0.2495 0.3054
000050 97 31 c5 b5 02 ad e2 34 50 31 a2 2d 09 b4 7a ac
       0.1747 -0.3606 -0.07825 0.3052 0.166 0.088 -0.2522 -0.06995
000060 31 2c 59 2c 97 34 d1 a4 d2 b2 19 b4 fa b0 ff 30
       0.0655 0.06793 0.2869 -0.01881 -0.2131 -0.256 -0.1555 0.1561
000070 8e 33 08 32 c8 2f 40 34 4a a9 01 30 53 b1 8c 29
       0.2361 0.1885 0.1216 0.2656 -0.04132 0.1251 -0.1664 0.04333
000080 f8 0c 43 aa 38 29 01 30 24 31 78 1e f9 ac 58 a9
       0.0003033 -0.04892 0.04077 0.1251 0.1606 0.006317 -0.0777 -0.04175
000090 2d 29 cb 25 2c 30 2b 30 f6 26 a0 ad e0 b0 0d a2
       0.04044 0.02263 0.1304 0.1302 0.02719 -0.0879 -0.1523 -0.01182
0000a0 1d aa 92 2e 8c a6 78 2f 04 a9 ac ad f2 a7 09 27
       -0.04776 0.10266 -0.02557 0.1167 -0.03918 -0.0886 -0.03104 0.02748
0000b0 35 a9 6f 29 b6 91 9a 2d 09 29 54 b1 33 ad a0 ae
       -0.04068 0.04245 -0.000697 0.0875 0.03934 -0.1665 -0.08124 -0.1035
0000c0 2b ad 79 1d d7 a8 5b a4 be 26 97 b3 13 30 d0 aa
       -0.08075 0.005344 -0.0378 -0.01701 0.02634 -0.2372 0.1273 -0.05322
0000d0 85 2c 4a af 29 af b7 ae 7d 2f 0f 2f 9b 22 f2 af
       0.0706 -0.1139 -0.1119 -0.1049 0.117 0.1103 0.0129 -0.12415
0000e0 e4 b1 9f 27 8a b4 13 9e 93 9b 91 b0 c7 2a 62 1a
       -0.1841 0.02977 -0.2837 -0.00593 -0.003698 -0.1427 0.05295 0.003117
0000f0 cd 32 92 2b fe 31 48 32 0c 34 2d b0 9d ac c0 36
       0.2125 0.05914 0.1873 0.1963 0.253 -0.1305 -0.0721 0.4219
000100 99 b3 d4 b4 24 32 4f 30 58 af fc b2 23 37 53 34
       -0.2374 -0.3018 0.1919 0.1346 -0.11475 -0.2183 0.446 0.2703
000110 00 31 15 ab ed b1 00 ad 0e 27 32 b3 f4 a5 64 21
       0.1562 -0.05533 -0.1852 -0.0781 0.02756 -0.2249 -0.02325 0.01053
000120 a1 a7 c4 33 2b 32 fd 2f 2c b2 f4 a9 d1 ad d6 2e
       -0.0298 0.2427 0.1927 0.1248 -0.1929 -0.0465 -0.0909 0.1068
000130 a6 31 d0 34 6a 2a 36 32 a1 32 9b 2f 32 b1 8e 32
       0.1765 0.3008 0.0501 0.1941 0.2072 0.11884 -0.1624 0.2048
000140 c6 ae a5 b3 99 ac c8 a7 f5 33 70 2a 67 ae c1 ac
       -0.10583 -0.2389 -0.07184 -0.0304 0.2487 0.0503 -0.10004 -0.0743
000150 04 33 b6 a1 e3 25 62 ae 44 33 8c a8 4d b0 49 33
       0.2192 -0.011154 0.023 -0.09973 0.227 -0.03552 -0.1344 0.2277
000160 83 a6 01 33 21 2a e3 30 63 a6 00 ac 06 2d a4 af
       -0.02544 0.2189 0.04788 0.1527 -0.02495 -0.0625 0.0785 -0.1194
000170 8c b4 c9 2a 1d 29 cd af 58 ac e7 2f 6a ac 39 a6
       -0.2842 0.053 0.03995 -0.1219 -0.0679 0.1235 -0.069 -0.0243
000180 bf ac 40 b3 53 b5 40 2d 94 33 eb 21 35 aa 92 2e
       -0.07416 -0.2266 -0.3328 0.08203 0.2368 0.01156 -0.0485 0.10266
000190 0c 29 71 30 a5 2d 39 ae c5 24 31 b1 19 32 da ae
       0.03943 0.1388 0.0882 -0.0972 0.01863 -0.1622 0.1906 -0.10706
0001a0 83 ab b7 a1 e5 a2 ed a9 c6 2f ee 31 68 2e 30 af
       -0.0587 -0.01116 -0.013466 -0.0463 0.12146 0.1853 0.1001 -0.1123
0001b0 52 b0 0a 27 c5 2e b3 2e 06 af 72 2c 8b a4 1c 29
       -0.135 0.0275 0.1058 0.1047 -0.10974 0.06946 -0.01775 0.03992
0001c0 af b2 b8 ae 5d 30 6e 2b 2d 24 6f b2 80 b4 9c 33
       -0.2089 -0.105 0.1364 0.05804 0.01631 -0.201 -0.2812 0.2378
0001d0 d0 30 a0 ad a4 2b 6d 2e 61 2f 50 b3 65 31 d0 b2
       0.1504 -0.0879 0.0597 0.1004 0.1153 -0.2285 0.1686 -0.2129
0001e0 f1 b4 3d 2b 81 b0 7e 2b 77 33 8a 35 77 34 a4 af
       -0.3088 0.05655 -0.1407 0.05853 0.2333 0.3462 0.279 -0.1194
0001f0 8d ab d5 2e 54 2e a7 2e 8f ab 54 30 8c b1 7d 31
       -0.059 0.10675 0.0989 0.10394 -0.05905 0.1353 -0.1733 0.1715

model_1/separable_conv2d_2/separable_conv2d f2 [32, 1, 1, 32]
000000 7a b9 cd c0 52 ba 27 40 1a 40 4f 40 0c 48 12 c2
       -0.6846 -2.4 -0.79 2.076 2.05 2.154 8.09 -3.035
000010 82 be c2 c6 c2 a5 0b c3 f8 c4 c8 bf 47 c1 da be
       -1.627 -6.758 -0.02249 -3.521 -4.97 -1.945 -2.639 -1.713
000020 5d b3 91 46 78 b9 52 be 1a 3c bd 40 dc bf a9 be
       -0.2301 6.566 -0.6836 -1.58 1.025 2.37 -1.965 -1.665
000030 9a 45 32 c2 0e c2 a1 43 41 48 d7 46 ce be ee b9
       5.6 -3.098 -3.027 3.814 8.51 6.84 -1.701 -0.741
000040 84 44 46 3a fc bd 87 c3 56 42 6a 38 52 3d 46 b9
       4.516 0.784 -1.496 -3.764 3.168 0.552 1.33 -0.659
000050 77 3a ab 44 b6 c1 c0 31 ae 41 60 40 ac 40 93 3a
       0.808 4.668 -2.855 0.1797 2.84 2.188 2.336 0.822
000060 60 bc d9 b5 01 45 48 3e a6 c5 c5 3b 82 be a1 42
       -1.094 -0.3655 5.004 1.57 -5.65 0.971 -1.627 3.314
000070 88 45 90 3c 02 c4 3e c8 6f 42 b9 3d 0f 35 06 b7
       5.53 1.141 -4.008 -8.484 3.217 1.431 0.3162 -0.439
000080 ad b8 ad c4 b3 39 41 3e 51 c6 1b 39 88 3f 47 42
       -0.5845 -4.676 0.7124 1.563 -6.316 0.638 1.883 3.139
000090 13 37 d0 3c 01 c1 52 bf 6f c6 2c 3c 1f 3e 1c b4
       0.4421 1.203 -2.502 -1.83 -6.434 1.043 1.53 -0.2568
0000a0 a1 c1 32 b1 4b 43 a3 c4 a6 49 42 b7 fa 45 45 c5
       -2.814 -0.1624 3.646 -4.637 11.3 -0.4536 5.977 -5.27
0000b0 e2 42 cf be fb c1 1e 3d f0 37 0b b9 fb be 2e 43
       3.441 -1.702 -2.99 1.279 0.496 -0.6304 -1.745 3.59
0000c0 80 bc 63 b6 28 40 1d c3 88 c0 c3 40 36 45 64 37
       -1.125 -0.3992 2.078 -3.557 -2.266 2.38 5.21 0.462
0000d0 ac 3f 08 c4 37 c3 b4 40 84 c3 1d c4 6a b4 18 31
       1.918 -4.03 -3.607 2.352 -3.758 -4.113 -0.276 0.1592
0000e0 1a bc 5b 3f e4 b7 44 3c 02 42 77 c3 cc bd 2a 3a
       -1.025 1.839 -0.4932 1.066 3.004 -3.732 -1.449 0.7705
0000f0 88 3c f9 bb 23 42 22 43 30 40 d2 bc 01 c2 b8 3f
       1.133 -0.9966 3.068 3.566 2.094 -1.205 -3.002 1.93
000100 0d c3 5c 3c c9 b9 da 45 24 39 00 c1 71 23 e0 41
       -3.525 1.09 -0.723 5.85 0.6426 -2.5 0.014534 2.938
000110 2f 30 06 3b f1 be b0 40 f5 bf 82 b5 ef c7 9b 39
       0.1307 0.878 -1.735 2.344 -1.989 -0.3442 -7.934 0.7007
000120 b3 c0 b6 bc 0c a9 72 45 7e c0 a8 3d 42 3e 95 3f
       -2.35 -1.178 -0.03943 5.445 -2.246 1.414 1.564 1.8955
000130 06 c0 97 42 a4 c2 32 b8 d6 2a 56 c1 eb 3e ff c0
       -2.012 3.295 -3.32 -0.5244 0.0534 -2.668 1.7295 -2.498
000140 71 42 75 c5 94 bd 5a c1 eb 3a dc 3e 12 3b fd 36
       3.22 -5.457 -1.395 -2.676 0.8647 1.715 0.884 0.4368
000150 2d b9 39 45 96 be 20 3f 7c 3c b7 45 9a 46 35 39
       -0.647 5.223 -1.646 1.781 1.121 5.715 6.6 0.651
000160 54 42 ee bd a3 44 c5 c7 77 bd 22 3b 9d c4 bb 42
       3.164 -1.482 4.637 -7.77 -1.366 0.8916 -4.613 3.365
000170 c2 45 2d b6 57 40 ea ba 26 46 59 3a 0c c2 31 b8
       5.758 -0.386 2.17 -0.8643 6.15 0.7935 -3.023 -0.524
000180 17 44 60 c4 9a c6 a5 2e 7f bc 7a 3c f6 c7 84 26
       4.09 -4.375 -6.6 0.1038 -1.124 1.119 -7.96 0.02545
000190 69 bb 84 ac 92 a9 15 3f 7e 35 4d 40 97 c0 7a b8
       -0.9263 -0.07056 -0.04352 1.7705 0.3433 2.15 -2.295 -0.5596
0001a0 60 3d cb 3d 0f bc 40 c2 a9 c1 fa 31 21 40 73 b2
       1.344 1.448 -1.015 -3.125 -2.83 0.1868 2.064 -0.2015
0001b0 e3 39 a5 3c b5 3d 45 46 dd c3 f5 47 39 c0 1d c6
       0.736 1.161 1.427 6.27 -3.932 7.957 -2.111 -6.113
0001c0 f9 c1 2a c0 3d 38 c4 c1 47 c5 90 2b 6b 43 a5 3d
       -2.986 -2.082 0.53 -2.883 -5.277 0.05908 3.709 1.411
0001d0 cd b6 77 c1 2a b8 1f 45 f9 3c 83 b9 a5 c5 57 44
       -0.425 -2.732 -0.5205 5.12 1.243 -0.689 -5.645 4.34
0001e0 b1 2c a3 c0 39 46 7b b5 63 3d ed 40 ea 39 de 42
       0.0733 -2.318 6.223 -0.3425 1.347 2.463 0.7393 3.434
0001f0 8c be 50 c5 4e ba e7 39 ae 3f ec 3d 40 42 4e 44
       -1.637 -5.312 -0.788 0.738 1.92 1.48 3.125 4.305

model_1/separable_conv2d_3/separable_conv2d/depthwise f2 [1, 3, 3, 32]
000000 38 2f c6 2d f0 a4 f4 ab 2f aa 53 a7 73 2b 4e a9
       0.1128 0.0902 -0.01929 -0.06213 -0.0483 -0.02861 0.0582 -0.04144
000010 ec a5 16 af b3 b2 0f ab 17 2d 77 2e d8 a9 07 2d
       -0.02313 -0.1107 -0.2094 -0.05515 0.0795 0.101 -0.04565 0.07855
000020 7d b1 34 ad 1f a6 b2 ad d6 a9 b9 28 3a 2f 98 31
       -0.1715 -0.0813 -0.02391 -0.089 -0.0456 0.0369 0.1129 0.1748
000030 c9 b0 12 2d 67 b2 23 28 d9 2c 5f ad 4d 2a f4 ad
       -0.1495 0.0792 -0.2001 0.03232 0.07574 -0.0839 0.04922 -0.093
000040 74 32 95 32 dd ab f5 b0 99 ae a6 ad fe 31 11 ae
       0.2017 0.2057 -0.06143 -0.1549 -0.1031 -0.08826 0.1873 -0.0948
000050 2d ae cd 2e b7 b0 44 b1 18 32 fe 32 7f 9d 65 20
       -0.0965 0.10626 -0.1473 -0.1646 0.1904 0.2185 -0.005367 0.00858
000060 49 b0 85 b1 61 a9 a1 b0 bd a8 d4 1c 48 1f f7 2b
       -0.1339 -0.1725 -0.04202 -0.1447 -0.03702 0.004715 0.00711 0.06223
000070 ba b3 72 32 af b2 ca 33 bb 30 26 b2 08 30 82 26
       -0.2415 0.2014 -0.2089 0.2434 0.1478 -0.1921 0.126 0.02542
000080 7c 2c d3 2f 3d 25 9d ac 37 a8 5d ac d7 2e 85 ab
       0.07007 0.12225 0.02046 -0.0721 -0.03293 -0.0682 0.1069 -0.05875
000090 b9 a2 e0 2f 1d a8 e2 af df 2f 06 31 d0 1b 73 a8
       -0.01313 0.12305 -0.03214 -0.12317 0.123 0.157 0.003815 -0.03476
0000a0 d9 a7 25 a8 35 23 0b ac 44 29 87 1c 49 25 f6 2a
       -0.03065 -0.03238 0.01408 -0.0632 0.04114 0.00442 0.02065 0.05438
0000b0 b6 ac 4d 2f 0b 2d d4 32 95 2d 3d ad 3a 2f 1f 9b
       -0.0736 0.1141 0.0788 0.2134 0.0872 -0.08185 0.1129 -0.003477
0000c0 be 31 2d af 37 af e7 ac b6 ad be ac 87 30 8c ae
       0.1794 -0.1121 -0.11273 -0.0766 -0.08923 -0.0741 0.1415 -0.1023
0000d0 85 ac 81 ae 35 b3 44 ae e1 27 b4 30 56 ae 55 30
       -0.0706 -0.1016 -0.2252 -0.0979 0.03078 0.147 -0.099 0.1354
0000e0 04 b1 42 b0 00 9a d1 af 51 b0 6c 2d a5 30 4b 2e
       -0.1567 -0.133 -0.00293 -0.12213 -0.1349 0.0847 0.1451 0.0983
0000f0 62 b0 58 31 4a ac 2d 2b 25 30 c3 ae 5a 2c 8d b0
       -0.137 0.167 -0.067 0.05606 0.1295 -0.10565 0.068 -0.1422
000100 52 35 95 a8 69 b3 e3 b2 bc b0 34 b3 b3 34 42 b2
       0.3325 -0.0358 -0.2316 -0.2152 -0.148 -0.2251 0.2937 -0.1956
000110 5e b4 25 34 ed ae 46 b0 a8 30 f5 33 6a b0 d6 31
       -0.273 0.259 -0.1082 -0.1335 0.1455 0.2487 -0.138 0.1824
000120 9c ac 90 b3 aa b0 22 b2 a2 b3 9d 30 a8 98 18 b0
       -0.072 -0.2363 -0.1458 -0.1917 -0.2385 0.1442 -0.002274 -0.1279
000130 2d ae 2e 35 ab 2b 53 30 ce 32 b3 b0 95 32 66 b0
       -0.0965 0.3237 0.0599 0.1351 0.2126 -0.1469 0.2057 -0.1375
000140 ce 30 9e 2d 6d ab e0 af cb ae d7 b0 98 31 4f af
       0.1501 0.08777 -0.058 -0.12305 -0.10614 -0.1512 0.1748 -0.1142
000150 86 b1 2a 32 c1 2c 0a ad 20 30 18 30 8f ae 03 28
       -0.1726 0.1926 0.0743 -0.07874 0.1289 0.1279 -0.1025 0.03134
000160 82 2f 48 af eb af f5 ae 7f ae 84 2e 92 b0 14 ae
       0.1173 -0.1138 -0.1237 -0.1087 -0.1015 0.1018 -0.1428 -0.095
000170 8c 9c ae 30 73 2f a3 31 23 30 bd ae f7 2f a7 27
       -0.00444 0.1462 0.1164 0.1761 0.1293 -0.1053 0.12445 0.02989
000180 60 2e 39 b2 db af a4 a4 d4 96 a6 a4 92 2e 54 ad
       0.0996 -0.1945 -0.12274 -0.01813 -0.001667 -0.01816 0.10266 -0.08325
000190 80 a8 65 a8 05 ae be ac 33 a4 20 2c 3c a0 86 30
       -0.03516 -0.03433 -0.09406 -0.0741 -0.0164 0.06445 -0.00827 0.1414
0001a0 5c a5 1a ac 83 ab 10 ac 6d af 40 2c c8 23 2a 2d
       -0.02094 -0.0641 -0.0587 -0.0635 -0.116 0.0664 0.0152 0.0807
0001b0 97 2b 03 2e 7b 2f 44 ac d9 2a 54 a3 a5 2a f7 af
       0.0593 0.09393 0.1169 -0.06665 0.0535 -0.01431 0.0519 -0.12445
0001c0 94 31 6e b0 e6 b1 e4 ae a7 af bf b0 73 30 f6 af
       0.1743 -0.1384 -0.1843 -0.10767 -0.11957 -0.1483 0.139 -0.1244
0001d0 fa b2 0a 2e 80 2e 2f ad d2 2a ce 2c 22 ae 57 33
       -0.218 0.09436 0.10156 -0.081 0.05328 0.0751 -0.0958 0.2294
0001e0 e2 2a f2 ad c1 b0 1d ae 83 b3 57 30 aa a8 4f b3
       0.05377 -0.0929 -0.1486 -0.0955 -0.2347 0.1356 -0.03644 -0.2284
0001f0 0a 2f c9 31 53 30 e0 ae 73 2e d2 ae 33 30 6b b0
       0.11 0.1808 0.1351 -0.1074 0.10077 -0.10657 0.1312 -0.1381

model_1/separable_conv2d_3/separable_conv2d f2 [32, 1, 1, 32]
000000 12 b5 25 32 4c 34 4d a9 74 ad 2c a8 c2 1a 5e 2b
       -0.317 0.192 0.2686 -0.0414 -0.0852 -0.0326 0.0033 0.05756
000010 cf b2 77 22 b1 b3 85 b6 8e ab ff 34 ee b1 70 37
       -0.2128 0.01263 -0.2404 -0.4075 -0.05902 0.3123 -0.1853 0.4648
000020 66 2f 18 32 a4 b2 6d 2e ac ad 41 b5 f8 31 51 2a
       0.1156 0.1904 -0.2075 0.1004 -0.0886 -0.3284 0.1865 0.04935
000030 72 b4 08 30 29 23 61 af f3 2e a7 23 e0 30 eb b3
       -0.2778 0.126 0.013985 -0.1153 0.1086 0.014946 0.1523 -0.2474
000040 6f aa 59 33 6c 0d dd af 59 af 73 b4 48 a7 8d 2c
       -0.05026 0.2296 0.000331 -0.12286 -0.1148 -0.278 -0.02844 0.0711
000050 4c b6 a5 34 84 9c cd b0 1f 31 68 28 a2 2b 33 35
       -0.3936 0.2903 -0.00441 -0.15 0.16 0.03442 0.05963 0.325
000060 ec ad 35 33 c8 b6 e4 2f 38 35 21 35 53 30 a3 af
       -0.0925 0.2252 -0.4238 0.1233 0.3262 0.3206 0.1351 -0.1193
000070 ac 34 71 b5 7a b2 13 30 7d b5 81 2e 27 b3 2b b0
       0.292 -0.34 -0.2024 0.1273 -0.343 0.1016 -0.2235 -0.1302
000080 49 b5 5e 2c 1e 97 4b 34 20 ae 96 b2 b6 b7 32 34
       -0.3303 0.06824 -0.001738 0.2683 -0.0957 -0.2058 -0.482 0.2622
000090 2f b5 56 30 6c 35 e0 25 eb a7 40 2d f9 34 23 1d
       -0.324 0.1355 0.3389 0.02295 -0.03093 0.08203 0.3108 0.005016
0000a0 79 2f 28 98 cd 32 9c ad 12 b0 f3 ad 28 b1 c9 b2
       0.11676 -0.00203 0.2125 -0.08765 -0.1272 -0.09296 -0.1611 -0.212
0000b0 84 b6 84 2b 42 2e b5 b7 5f 2f fd b3 1c 29 f3 af
       -0.4072 0.05872 0.0978 -0.4817 0.1152 -0.2496 0.03992 -0.1242
0000c0 22 34 6f 2b 72 af 12 b3 29 b3 0a 32 1d 31 17 ae
       0.2583 0.05807 -0.11633 -0.221 -0.2238 0.1887 0.1598 -0.09515
0000d0 0f 2c 8b 21 06 b1 03 ae 82 31 df 32 d8 af 88 ac
       0.0634 0.010826 -0.157 -0.09393 0.1721 0.2147 -0.12256 -0.0708
0000e0 32 2b a4 25 df a8 82 29 ba 2e 07 2f d6 1a 0a af
       0.0562 0.02203 -0.03806 0.04303 0.1051 0.1098 0.003338 -0.11
0000f0 01 32 65 30 db b0 e2 31 6f 2b b7 af 2f 30 da b2
       0.1876 0.1373 -0.1517 0.1838 0.05807 -0.12054 0.1307 -0.2141
000100 47 b6 3f 33 04 34 b9 30 3a 34 1f 2b 4a ad 2c 30
       -0.3923 0.2264 0.251 0.1476 0.2642 0.05563 -0.08264 0.1304
000110 7a b3 23 34 b8 b4 ba b6 e3 b7 a5 b5 93 32 8c 2e
       -0.2336 0.2585 -0.295 -0.4204 -0.493 -0.3528 0.2054 0.1023
000120 e4 1e 87 2f d1 34 d1 30 18 39 77 2e 00 2f 4c ab
       0.00673 0.1176 0.301 0.1505 0.6367 0.101 0.1094 -0.057
000130 fd 2e d2 b4 c2 2f 3d b8 40 35 7f 34 12 ad 9b a4
       0.1092 -0.3013 0.1212 -0.53 0.3281 0.281 -0.0792 -0.01799
000140 20 a9 04 2b 4d 30 fa 35 35 b1 d7 31 68 2e 28 ae
       -0.04004 0.0548 0.1344 0.3735 -0.1627 0.1825 0.1001 -0.0962
000150 c0 33 c1 2f 72 2a 01 b2 22 2c 93 b3 91 ac 89 2e
       0.2422 0.12115 0.05035 -0.1876 0.0646 -0.2367 -0.07135 0.1021
000160 cf af ad b4 0c b4 7d 2e 08 b2 2d b5 df a9 3e 34
       -0.122 -0.2922 -0.253 0.1014 -0.1885 -0.3235 -0.04587 0.2651
000170 b6 2b 87 33 fc ad 4d 2d ff a8 a5 34 d0 a4 a6 30
       0.06024 0.2352 -0.0935 0.0828 -0.03903 0.2903 -0.0188 0.1453
000180 8e 2e 37 29 76 b0 d5 2d 99 30 87 b4 6e 2f 45 35
       0.1024 0.04074 -0.1394 0.0911 0.1437 -0.283 0.1161 0.3293
000190 02 b4 bd a2 f9 ae 87 ad 4b ae bf b6 94 30 46 b3
       -0.2505 -0.01316 -0.10895 -0.08636 -0.0983 -0.4216 0.1431 -0.2273
0001a0 00 34 57 b4 6b 2a 61 b8 fa 26 00 2c 2c 2c 53 30
       0.25 -0.2712 0.05014 -0.5474 0.02725 0.0625 0.0652 0.1351
0001b0 95 a3 31 ae 28 b1 b6 b0 dd 30 03 a5 e0 35 87 a6
       -0.01481 -0.09674 -0.1611 -0.1472 0.152 -0.01958 0.3672 -0.0255
0001c0 6c 32 5e 30 3c 32 11 b1 c9 36 d4 33 78 32 67 b5
       0.2007 0.1365 0.1948 -0.1583 0.424 0.2446 0.2021 -0.3376
0001d0 44 2c a4 33 12 2f 8f 2c 3a 37 03 b0 b5 2e 98 ae
       0.06665 0.2388 0.1105 0.0712 0.4517 -0.1254 0.1048 -0.103
0001e0 68 31 66 30 66 30 03 b8 e4 aa a5 34 de a8 50 2d
       0.169 0.1375 0.1375 -0.5015 -0.05383 0.2903 -0.03802 0.083
0001f0 b9 2d f0 35 3d 2b db b2 6f af 5f b5 5e 1c 0d b5
       0.0894 0.371 0.05655 -0.2142 -0.11615 -0.3357 0.004265 -0.3157

model_1/separable_conv2d_6/separable_conv2d/depthwise f2 [64]
000000 00 00 00 00 00 00 00 00 00 00 00 00 00 00 00 00
       0.0 0.0 0.0 0.0 0.0 0.0 0.0 0.0
000010 00 00 00 00 00 00 00 00 00 00 00 00 00 00 00 00
       0.0 0.0 0.0 0.0 0.0 0.0 0.0 0.0
000020 00 00 00 00 00 00 00 00 00 00 00 00 00 00 00 00
       0.0 0.0 0.0 0.0 0.0 0.0 0.0 0.0
000030 00 00 00 00 00 00 00 00 00 00 00 00 00 00 00 00
       0.0 0.0 0.0 0.0 0.0 0.0 0.0 0.0
000040 00 00 00 00 00 00 00 00 00 00 00 00 00 00 00 00
       0.0 0.0 0.0 0.0 0.0 0.0 0.0 0.0
000050 00 00 00 00 00 00 00 00 00 00 00 00 00 00 00 00
       0.0 0.0 0.0 0.0 0.0 0.0 0.0 0.0
000060 00 00 00 00 00 00 00 00 00 00 00 00 00 00 00 00
       0.0 0.0 0.0 0.0 0.0 0.0 0.0 0.0
000070 00 00 00 00 00 00 00 00 00 00 00 00 00 00 00 00
       0.0 0.0 0.0 0.0 0.0 0.0 0.0 0.0

model_1/conv2d_2/Conv2D f2 [64, 1, 1, 32]
000000 0c 2e 13 28 31 a4 26 33 3f 2b c0 ac 53 ac c4 28
       0.0945 0.03183 -0.01637 0.2234 0.0566 -0.0742 -0.06757 0.03723
000010 3a 2e cc b0 c1 2c e3 b0 82 24 ba 2e 3b ae cd 2a
       0.0973 -0.1499 0.0743 -0.1527 0.01761 0.1051 -0.09735 0.05313
000020 9f 2a 05 aa c4 b4 8b 26 36 2f c3 b3 fc 2f 72 2c
       0.05173 -0.04703 -0.2979 0.02556 0.1127 -0.2426 0.12476 0.06946
000030 4c 93 d6 a9 eb b2 0e 24 2b b5 65 a9 fe 26 1e ad
       -0.0008907 -0.0456 -0.2162 0.01584 -0.323 -0.04214 0.02731 -0.07996
000040 6e 34 44 b0 35 b0 8e b0 58 ac ae ad f3 b1 72 a6
       0.2769 -0.1333 -0.1315 -0.1423 -0.0679 -0.08875 -0.1859 -0.02518
000050 22 b0 26 b5 f2 2c cd b5 6a 96 e4 ae 82 a9 cc b4
       -0.1292 -0.3218 0.0773 -0.3625 -0.001566 -0.10767 -0.04303 -0.2998
000060 06 32 a9 30 9c a4 e7 2d e8 34 48 b3 27 27 e2 30
       0.1882 0.1456 -0.018 0.0922 0.3066 -0.2275 0.02794 0.1526
000070 6f 96 10 b7 0b af 3f ad 3c a9 3f 23 e9 b1 e8 9e
       -0.001571 -0.4414 -0.11005 -0.082 -0.0409 0.01415 -0.1847 -0.006744
000080 67 af 4c ae fe b0 2b b4 9e 22 cd 1c d1 1c 7f b1
       -0.11566 -0.0984 -0.156 -0.2605 0.012924 0.00469 0.004704 -0.1718
000090 f5 28 3f b4 bb 2e 41 32 ea 26 b2 a9 a1 a6 1b 22
       0.03873 -0.2654 0.10516 0.1954 0.02701 -0.0445 -0.0259 0.011925
0000a0 fc b1 81 24 b1 ab f8 23 f9 32 b4 a7 6f a5 8e 2a
       -0.187 0.0176 -0.0601 0.015564 0.2179 -0.03009 -0.02122 0.0512
0000b0 4d 26 10 32 40 ae 19 2a e8 b4 63 36 86 2e 72 ac
       0.02461 0.1895 -0.09766 0.04764 -0.3066 0.3992 0.1019 -0.06946
0000c0 eb 2f 84 b4 b3 a8 7b 26 e9 98 8e 30 96 2e c1 2a
       0.1237 -0.2822 -0.0367 0.02531 -0.002398 0.1423 0.1029 0.05276
0000d0 81 2c e9 a9 bd b1 c0 2f 30 2a 22 2a 1b 33 01 a5
       0.0704 -0.04617 -0.1793 0.1211 0.04834 0.0479 0.222 -0.01955
0000e0 55 b3 35 2e 86 b3 6e 2e 83 30 94 32 9a ac 40 b0
       -0.2291 0.097 -0.2351 0.10046 0.141 0.2056 -0.0719 -0.1328
0000f0 46 22 b3 20 93 30 79 ac 8d a2 54 34 1a 28 b2 a1
       0.01225 0.00918 0.143 -0.0699 -0.012794 0.2705 0.03204 -0.01112
000100 4a aa 24 2d ee a8 a6 ae bd b1 bd 2a eb b0 c9 b4
       -0.04913 0.0803 -0.0385 -0.1039 -0.1793 0.05264 -0.1537 -0.299
000110 54 2d 8e 25 3a ac 83 9a c3 34 66 a6 c1 b4 8b 28
       0.08325 0.0217 -0.06604 -0.00318 0.2976 -0.025 -0.297 0.0355
000120 42 a0 24 af 17 29 ce ae 4b 28 fb 29 c1 aa 57 30
       -0.008316 -0.1116 0.03976 -0.1063 0.03354 0.04672 -0.05276 0.1356
000130 b8 1e 8f ae cb 2e 77 31 33 b1 79 b1 cc 2e b6 34
       0.00656 -0.1025 0.10614 0.1708 -0.1625 -0.171 0.1062 0.2944
000140 17 34 d2 34 40 24 69 2c df b0 28 af 1f 96 42 b0
       0.2556 0.3013 0.0166 0.0689 -0.1522 -0.1118 -0.001494 -0.133
000150 33 a3 16 2d ed 2c 9d 2a 78 31 4e 2f 4b 31 38 32
       -0.01406 0.07947 0.07697 0.05167 0.1709 0.11414 0.1654 0.1943
000160 ab 30 82 34 94 a4 8c 33 8b ae 51 28 1f 2d 23 af
       0.1459 0.2817 -0.01788 0.2358 -0.10223 0.03372 0.08 -0.1115
000170 23 2d df b5 f0 2a fe 2d 44 a8 2f 32 61 a0 1f 30
       0.08026 -0.367 0.0542 0.0936 -0.03333 0.1932 -0.00855 0.1288
000180 3a 2b a7 b2 62 af ef 2a 27 34 7b b1 b9 aa ad 2d
       0.05646 -0.2079 -0.11536 0.05417 0.2595 -0.1713 -0.05252 0.0887
000190 01 b0 90 b0 9c 31 62 b0 d0 b2 45 b0 78 b1 71 af
       -0.1251 -0.1426 0.1753 -0.137 -0.2129 -0.1334 -0.1709 -0.1163
0001a0 31 ac 02 35 01 2e 98 b1 50 b4 f4 ae ea b3 87 b0
       -0.0655 0.313 0.0938 -0.1748 -0.2695 -0.10864 -0.2473 -0.1415
0001b0 69 2f f3 b4 ca 24 18 19 d0 31 d6 9d 2f 2e 2d 2b
       0.1158 -0.3093 0.0187 0.002487 0.1816 -0.0057 0.0966 0.05606
0001c0 05 a1 64 2c c8 b5 b6 a3 d2 23 5b b5 14 24 bf af
       -0.0098 0.0686 -0.3613 -0.01506 0.015274 -0.3347 0.01593 -0.12103
0001d0 48 25 6f a2 54 91 b4 b0 a7 24 5e 2d ee aa e7 a9
       0.02063 -0.012566 -0.0006504 -0.147 0.01817 0.08386 -0.05414 -0.0461
0001e0 7a 34 08 af d3 31 8f 2a a8 1c 16 aa a2 ad 01 2a
       0.2798 -0.10986 0.182 0.05124 0.004547 -0.04755 -0.088 0.0469
0001f0 fe 9d be a5 86 32 fe ab 7f a9 52 25 ae ad e6 ae
       -0.00585 -0.02243 0.2039 -0.06244 -0.04294 0.02078 -0.08875 -0.1078
